…
num_epochs: 30
learning_sched: []
batch_size: 1
model: CSRNet
pretrained_model: C:/Users/lande/Desktop/THS-ST2/Pipeline/weights/CSRNet shanghaitech-a 2023-01-10 17_35_58.055399_train/30.pth
save_output_plots: True
init_weights: True
mode: val
use_gpu: True
loss_log_step: 5
model_save_step: 5
model_save_path: ./weights
model_test_path: /tests
shanghaitech_a_path: ../Datasets/ShanghaiTechA/
shanghaitech_b_path: ../Datasets/ShanghaiTechB/
ucf_cc_50_path: ../Datasets/UCF-CC-50/
ucf_qnrf_path: ../Datasets/UCF-QNRF/
-------------- End ----------------
output_layer.bias
CSRNet(
  (frontend): Sequential(
    (0): Conv2d(3, 64, kernel_size=(3, 3), stride=(1, 1), padding=(1, 1))
    (1): ReLU(inplace=True)
    (2): Conv2d(64, 64, kernel_size=(3, 3), stride=(1, 1), padding=(1, 1))
    (3): ReLU(inplace=True)
    (4): MaxPool2d(kernel_size=2, stride=2, padding=0, dilation=1, ceil_mode=False)
    (5): Conv2d(64, 128, kernel_size=(3, 3), stride=(1, 1), padding=(1, 1))
    (6): ReLU(inplace=True)
    (7): Conv2d(128, 128, kernel_size=(3, 3), stride=(1, 1), padding=(1, 1))
    (8): ReLU(inplace=True)
    (9): MaxPool2d(kernel_size=2, stride=2, padding=0, dilation=1, ceil_mode=False)
    (10): Conv2d(128, 256, kernel_size=(3, 3), stride=(1, 1), padding=(1, 1))
    (11): ReLU(inplace=True)
    (12): Conv2d(256, 256, kernel_size=(3, 3), stride=(1, 1), padding=(1, 1))
    (13): ReLU(inplace=True)
    (14): Conv2d(256, 256, kernel_size=(3, 3), stride=(1, 1), padding=(1, 1))
    (15): ReLU(inplace=True)
    (16): MaxPool2d(kernel_size=2, stride=2, padding=0, dilation=1, ceil_mode=False)
    (17): Conv2d(256, 512, kernel_size=(3, 3), stride=(1, 1), padding=(1, 1))
    (18): ReLU(inplace=True)
    (19): Conv2d(512, 512, kernel_size=(3, 3), stride=(1, 1), padding=(1, 1))
    (20): ReLU(inplace=True)
    (21): Conv2d(512, 512, kernel_size=(3, 3), stride=(1, 1), padding=(1, 1))
    (22): ReLU(inplace=True)
  )
  (backend): Sequential(
    (0): Conv2d(512, 512, kernel_size=(3, 3), stride=(1, 1), padding=(2, 2), dilation=(2, 2))
    (1): ReLU(inplace=True)
    (2): Conv2d(512, 512, kernel_size=(3, 3), stride=(1, 1), padding=(2, 2), dilation=(2, 2))
    (3): ReLU(inplace=True)
    (4): Conv2d(512, 512, kernel_size=(3, 3), stride=(1, 1), padding=(2, 2), dilation=(2, 2))
    (5): ReLU(inplace=True)
    (6): Conv2d(512, 256, kernel_size=(3, 3), stride=(1, 1), padding=(2, 2), dilation=(2, 2))
    (7): ReLU(inplace=True)
    (8): Conv2d(256, 128, kernel_size=(3, 3), stride=(1, 1), padding=(2, 2), dilation=(2, 2))
    (9): ReLU(inplace=True)
    (10): Conv2d(128, 64, kernel_size=(3, 3), stride=(1, 1), padding=(2, 2), dilation=(2, 2))
    (11): ReLU(inplace=True)
  )
  (output_layer): Conv2d(64, 1, kernel_size=(1, 1), stride=(1, 1))
)
The number of parameters: 16263489
mae: 976978.713983, mse: 1052534.104864, fps: 2.0105
------------ Options -------------
dataset: shanghaitech-a
lr: 1e-07
momentum: 0.95
weight_decay: 0.0001
num_epochs: 30
learning_sched: []
batch_size: 1
model: CSRNet
pretrained_model: C:/Users/lande/Desktop/THS-ST2/Pipeline/weights/CSRNet shanghaitech-a 2023-01-10 17_35_58.055399_train/30.pth
save_output_plots: True
init_weights: True
mode: pred
use_gpu: True
loss_log_step: 5
model_save_step: 5
model_save_path: ./weights
model_test_path: /tests
shanghaitech_a_path: ../Datasets/ShanghaiTechA/
shanghaitech_b_path: ../Datasets/ShanghaiTechB/
ucf_cc_50_path: ../Datasets/UCF-CC-50/
ucf_qnrf_path: ../Datasets/UCF-QNRF/
-------------- End ----------------
output_layer.bias
CSRNet(
  (frontend): Sequential(
    (0): Conv2d(3, 64, kernel_size=(3, 3), stride=(1, 1), padding=(1, 1))
    (1): ReLU(inplace=True)
    (2): Conv2d(64, 64, kernel_size=(3, 3), stride=(1, 1), padding=(1, 1))
    (3): ReLU(inplace=True)
    (4): MaxPool2d(kernel_size=2, stride=2, padding=0, dilation=1, ceil_mode=False)
    (5): Conv2d(64, 128, kernel_size=(3, 3), stride=(1, 1), padding=(1, 1))
    (6): ReLU(inplace=True)
    (7): Conv2d(128, 128, kernel_size=(3, 3), stride=(1, 1), padding=(1, 1))
    (8): ReLU(inplace=True)
    (9): MaxPool2d(kernel_size=2, stride=2, padding=0, dilation=1, ceil_mode=False)
    (10): Conv2d(128, 256, kernel_size=(3, 3), stride=(1, 1), padding=(1, 1))
    (11): ReLU(inplace=True)
    (12): Conv2d(256, 256, kernel_size=(3, 3), stride=(1, 1), padding=(1, 1))
    (13): ReLU(inplace=True)
    (14): Conv2d(256, 256, kernel_size=(3, 3), stride=(1, 1), padding=(1, 1))
    (15): ReLU(inplace=True)
    (16): MaxPool2d(kernel_size=2, stride=2, padding=0, dilation=1, ceil_mode=False)
    (17): Conv2d(256, 512, kernel_size=(3, 3), stride=(1, 1), padding=(1, 1))
    (18): ReLU(inplace=True)
    (19): Conv2d(512, 512, kernel_size=(3, 3), stride=(1, 1), padding=(1, 1))
    (20): ReLU(inplace=True)
    (21): Conv2d(512, 512, kernel_size=(3, 3), stride=(1, 1), padding=(1, 1))
    (22): ReLU(inplace=True)
  )
  (backend): Sequential(
    (0): Conv2d(512, 512, kernel_size=(3, 3), stride=(1, 1), padding=(2, 2), dilation=(2, 2))
    (1): ReLU(inplace=True)
    (2): Conv2d(512, 512, kernel_size=(3, 3), stride=(1, 1), padding=(2, 2), dilation=(2, 2))
    (3): ReLU(inplace=True)
    (4): Conv2d(512, 512, kernel_size=(3, 3), stride=(1, 1), padding=(2, 2), dilation=(2, 2))
    (5): ReLU(inplace=True)
    (6): Conv2d(512, 256, kernel_size=(3, 3), stride=(1, 1), padding=(2, 2), dilation=(2, 2))
    (7): ReLU(inplace=True)
    (8): Conv2d(256, 128, kernel_size=(3, 3), stride=(1, 1), padding=(2, 2), dilation=(2, 2))
    (9): ReLU(inplace=True)
    (10): Conv2d(128, 64, kernel_size=(3, 3), stride=(1, 1), padding=(2, 2), dilation=(2, 2))
    (11): ReLU(inplace=True)
  )
  (output_layer): Conv2d(64, 1, kernel_size=(1, 1), stride=(1, 1))
)
The number of parameters: 16263489
